resources/best_model.pt (torch, 674082 bytes, 12 tensors)

lstm.weight_ih_l0 f4 [512, 1]
0	0xbcb20b92	-0.021734033
1	0xbd3c54a1	-0.045979146
2	0x3d735e60	0.059416175
3	0x3daa493d	0.0831475
4	0xbd0ef34c	-0.034899995
5	0x3c6c40ba	0.014419729
6	0xbd9f52c7	-0.077794604
7	0x3d93779b	0.07200547
8	0xbd8ec474	-0.06971064
9	0x3da022cb	0.07819136
10	0x3d9b8ee5	0.07595614
11	0x3d840502	0.06446268
12	0xbc21afd6	-0.009868583
13	0xbbd73eac	-0.0065687504
14	0x3c1148ac	0.008867424
15	0x3ce7e1b5	0.028305868
16	0x3d9c50fa	0.076326326
17	0xbd15967e	-0.036520474
18	0xbda71297	-0.081578426
19	0x3d5f5d82	0.054532535
20	0xbd310a5f	-0.04322278
21	0x3d2e1257	0.04249796
22	0xbaed9b6e	-0.0018127987
23	0x3d6c7dd5	0.05773719
24	0x3d8b6207	0.068058066
25	0x3d7b74ae	0.06139057
26	0xbd309320	-0.04310906
27	0xbdaaa239	-0.08331723
28	0x3d32ae51	0.043623272
29	0x3d55dc1c	0.052211866
30	0xbd183895	-0.037163336
31	0x3d8a696a	0.067583874
32	0xbdbbbe95	-0.0916721
33	0xbd8c8435	-0.06861154
34	0x3d9c124f	0.076206796
35	0x3cf17fd1	0.029479893
36	0xbdaf7a2f	-0.085682265
37	0x3abcc9b1	0.001440337
38	0xbd2050b2	-0.039139457
39	0xbdacdd20	-0.08440614
40	0x3d821bcc	0.06352958
41	0x3da9e23c	0.08295104
42	0x3d116404	0.035495773
43	0x3cc3d79b	0.02390652
44	0xbc913364	-0.0177247
45	0x3bfed381	0.007776678
46	0x3cb377c0	0.021907687
47	0xbda4a88e	-0.08039962
48	0x3d2dfa51	0.04247505
49	0xbdad9d20	-0.08477235
50	0xbc8c533f	-0.017129539
51	0xbda035b1	-0.07822741
52	0x3d9db520	0.077005625
53	0xbda49001	-0.08035279
54	0x3da5230b	0.080633245
55	0x3d90ad31	0.07064284
56	0x3d001b7f	0.031276222
57	0x3d2f4b2c	0.0427963
58	0xbd8e80ba	-0.069581464
59	0xbd9c9563	-0.07645681
60	0x3da5adcc	0.0808979
61	0x3d978cb4	0.07399884
62	0xbd93fe71	-0.07226265
63	0xbd68a879	-0.056801293
64	0xbd011c9b	-0.03152142
65	0x3d897520	0.06711793
66	0x3c677670	0.014127359
67	0xbd405dba	-0.046964385
68	0xbd9fcfbd	-0.07803295
69	0x3d437a45	0.047724027
70	0x3d9a2ba0	0.07527852
71	0x3d5f0cd3	0.05445559
72	0x3cdeab59	0.027181314
73	0xbd7c732b	-0.06163327
74	0x3c21aec0	0.009868324
75	0xbb34bc07	-0.0027577893
76	0x3d8cf12a	0.06881936
77	0x3d975127	0.073885255
78	0x3d34953a	0.044087626
79	0x3d9cd079	0.076569505
80	0xbc9e0f4b	-0.019294402
81	0x3dab24c8	0.08356625
82	0xbcd22f33	-0.025657272
83	0x3c30fca4	0.010802422
84	0xbd79e492	-0.061008997
85	0xbdb78b8e	-0.08962165
86	0xbd89a8f0	-0.067216754
87	0xbd99c065	-0.075073995
88	0x3ccff01d	0.02538305
89	0x3d9a8326	0.07544546
90	0x3c4e9135	0.012607862
91	0xbcbf715c	-0.023369484
92	0x3d669431	0.05629367
93	0x3da99004	0.08279422
94	0xbd4ac98b	-0.049508613
95	0xbce8259e	-0.02833825
96	0xbbcc8b1d	-0.0062421695
97	0xbc9dc573	-0.01925919
98	0xbca84023	-0.020538395
99	0xbd9590e6	-0.07303028
100	0xbb43745e	-0.0029824
101	0x3da5e869	0.08100969
102	0x3cd5580d	0.026042962
103	0x3cc99c9e	0.024610814
104	0xbd4c52ee	-0.049883775
105	0xbcea46de	-0.028598245
106	0x3d1a72b3	0.037707042
107	0x3a0af91f	0.0005301404
108	0xbcf4b1db	-0.029869964
109	0xbd523ea3	-0.051329266
110	0x3d9a03a9	0.07520229
111	0xbd024805	-0.031806964
112	0x3db17d17	0.08666437
113	0x3d856c4b	0.06514796
114	0x3d90403a	0.070435
115	0xbd3f9e0a	-0.046781577
116	0xbdc04de0	-0.093898535
117	0xbd5b3a6e	-0.05352252
118	0x3dba626f	0.09100806
119	0x3d8fb6ef	0.07017314
120	0x3c8e8ded	0.01740166
121	0x3d58c690	0.05292374
122	0x3c405e6d	0.011741263
123	0x3d1dbd53	0.03851063
124	0xbd536498	-0.051609606
125	0xbd8d478d	-0.06898413
126	0xbd3bd97f	-0.045861717
127	0x3d963047	0.07333427
128	0x3db1ee0d	0.08687983
129	0x3bf6780f	0.0075216363
130	0xbd7bc61f	-0.06146824
131	0xbcccbf9d	-0.024993712
132	0xbd06b664	-0.032888785
133	0xbc695774	-0.014242042
134	0x3d3e5ff0	0.046478212
135	0x3b4ab570	0.00309309
136	0x3daf9e76	0.08575146
137	0x3d8dbaa4	0.069203645
138	0x3d745072	0.05964703
139	0xbc82690c	-0.01591923
140	0x3cc03cf4	0.023466565
141	0x3d7226e6	0.059119128
142	0x3da4dfc4	0.080504924
143	0x3d32ad05	0.043622036
144	0xbbef8dc0	-0.007310599
145	0xbd99ce24	-0.07510021
146	0x3d46cf6a	0.04853765
147	0x3d9507f4	0.072769076
148	0x3d9eb22f	0.077488296
149	0xbb88d790	-0.0041760877
150	0x3d75e3ce	0.060031705
151	0xbd334416	-0.043766104
152	0xbc077f33	-0.008270073
153	0x3da25cd4	0.07927862
154	0xbc9c826c	-0.019105159
155	0xbd003915	-0.031304438
156	0x3cea5796	0.028606217
157	0x3da8827c	0.08228013
158	0x3d667193	0.056260657
159	0x3d18c3da	0.037296154
160	0x3d8b7461	0.06809307
161	0xbcbcf79f	-0.023067294
162	0xbdafe590	-0.085887074
163	0x3d7335ba	0.05937741
164	0x3c35fb5f	0.011107295
165	0x3d5bff44	0.053710237
166	0xbd2723b3	-0.04080553
167	0x3cc578f7	0.024105532
168	0xbd9c78d1	-0.076402314
169	0x3c9986ef	0.0187411
170	0xbd0d3ec0	-0.03448367
171	0xbdb0b31d	-0.08627913
172	0xbd039961	-0.032128695
173	0x3d042660	0.03226316
174	0x39e5eff0	0.0004385705
175	0x3c895496	0.016763967
176	0xbd9db149	-0.0769983
177	0x3db58410	0.088630795
178	0x3d28c2db	0.041201454
179	0x3d4c4f52	0.049880333
180	0x3d01f7f5	0.03173061
181	0xbcf013da	-0.029306341
182	0xbd99d3db	-0.07511111
183	0x3db96f40	0.090544224
184	0xbcceb072	-0.02523062
185	0xbd081cea	-0.0332307
186	0xbdb98721	-0.09058977
187	0x3c358e65	0.011081313
188	0x3d3c6a9b	0.046000104
189	0x3cbaac39	0.0227872
190	0xbd320227	-0.043459084
191	0xbc7d7a2c	-0.015471023
192	0xbd66174f	-0.056174573
193	0xbd4c49e2	-0.049875148
194	0x3b82204e	0.003971136
195	0xbcbc6523	-0.022997444
196	0xbd7aa7ad	-0.061195064
197	0x3d42e67a	0.04758308
198	0x3da96276	0.08270733
199	0x3cdbfb8b	0.026853343
200	0xbd2ba0c9	-0.041901384
201	0xbd2bb0f6	-0.04191681
202	0x3d8acf67	0.0677784
203	0xbb89128f	-0.0041831206
204	0xbd906d9b	-0.070521556
205	0x3db79d35	0.08965532
206	0xbd9323aa	-0.07184537
207	0x3d8a4b7b	0.06752678
208	0x3c816caf	0.015798895
209	0x3d2db0da	0.042404987
210	0xbcba8f45	-0.022773394
211	0xbd9183bb	-0.07105204
212	0xbd73f364	-0.059558287
213	0xbc09cd50	-0.008410767
214	0xbcfac63b	-0.030612102
215	0xbcef4823	-0.029209202
216	0x3d4ac1c2	0.049501188
217	0x3b5014a8	0.0031750593
218	0xbcd01e7d	-0.025405163
219	0xbda89f65	-0.08233527
220	0x3c938560	0.018007934
221	0xbdadb03e	-0.08480881
222	0x3d589829	0.052879486
223	0x3d8a97fd	0.06767271
224	0x3d5e2b0a	0.054240264
225	0x3c7d5071	0.015461073
226	0xbdb9785f	-0.09056162
227	0xbc12e679	-0.008966082
228	0xbcbb48ca	-0.022861857
229	0x3d5b66ce	0.05356484
230	0xbda2c8d0	-0.07948458
231	0xbd005a25	-0.03133597
232	0xbaf6b634	-0.0018822611
233	0x3d47bec8	0.048765928
234	0xbdb8b8dc	-0.09019634
235	0xbd9e145d	-0.07718728
236	0x3d294ccc	0.041333005
237	0x3d04be0e	0.032407813
238	0xbb32754f	-0.0027230566
239	0xbce97487	-0.028497947
240	0x3cf25cef	0.02958533
241	0x3cc02237	0.023453815
242	0xba1d949a	-0.0006011218
243	0x3d985167	0.07437401
244	0xbd8615aa	-0.06547101
245	0x3d0b644b	0.034031194
246	0x3d43c89a	0.04779873
247	0xbc859c33	-0.016309833
248	0xbd8d1072	-0.06887902
249	0x3d23494c	0.039864823
250	0xbbc9731a	-0.0061477544
251	0x3d17e838	0.037086695
252	0x3bf26352	0.007397094
253	0xbc4d09ce	-0.012514545
254	0xbc6e1c77	-0.014533154
255	0xbca25d77	-0.019819958

lstm.weight_hh_l0 f4 [512, 128]
0	0x3d5b65e9	0.053563986
1	0x3d47184c	0.048607156
2	0x3da1ba12	0.07896818
3	0xbd2fa9c5	-0.042886514
4	0x3d500fe7	0.050796416
5	0x3c241a20	0.010015994
6	0x3c8c0270	0.017091006
7	0x3db6ed99	0.08932037
8	0x3d691038	0.056900233
9	0x3da2af5a	0.07943602
10	0xbd924450	-0.07141936
11	0xbd64f1f4	-0.055894807
12	0xbc06909e	-0.00821319
13	0x3d2d2615	0.042272646
14	0xbc7604a2	-0.015015753
15	0x3d8f8e16	0.070095226
16	0x3d7f8477	0.062382188
17	0xbc0e20eb	-0.00867484
18	0xbda1bd32	-0.07897414
19	0x3da8618f	0.08221733
20	0x3d0cccec	0.034375116
21	0x3cfa8a02	0.030583385
22	0xbc518070	-0.01278697
23	0x3ce0eacd	0.027455712
24	0xbd6c6648	-0.05771473
25	0xbcc97c13	-0.024595296
26	0x3d8d9f7a	0.06915183
27	0xbd943955	-0.07237498
28	0xbd262181	-0.040559296
29	0xbd70da2d	-0.05880182
30	0x3d8ab744	0.067732364
31	0xbd317bf1	-0.04333109
32	0xbcd1feea	-0.025634248
33	0xbd9028d1	-0.07039035
34	0x3c3e5715	0.011617442
35	0xbd9a9e16	-0.07549684
36	0x3dae05c1	0.08497191
37	0x3d8014c3	0.0625396
38	0xbc1045b4	-0.008805681
39	0x3d3da3a4	0.046298638
40	0x3cdb6019	0.026779221
41	0x3d523ae9	0.051325712
42	0xbc24b185	-0.01005209
43	0xbd2e1a34	-0.042505458
44	0x3d405182	0.046952732
45	0xbce7cdb1	-0.028296323
46	0xbd3c60ea	-0.045990862
47	0xbd5a93eb	-0.05336372
48	0x3d460ed5	0.04835399
49	0xbc08ebfd	-0.008357045
50	0x3daa10f2	0.08304013
51	0x3db2b175	0.087252535
52	0xbda6aba3	-0.08138206
53	0x3d31ba1e	0.043390386
54	0x3d3a0b10	0.045420706
55	0x3dabbae1	0.08385254
56	0xbdaff265	-0.08591155
57	0x3d9594f6	0.07303803
58	0x3cd9614b	0.02653565
59	0x3da37de9	0.07983
60	0xbd8c5bb9	-0.06853432
61	0xbcb17458	-0.021661922
62	0xbd8e4b1b	-0.06947919
63	0xbd984d50	-0.07436621
64	0xbd55ff65	-0.052245516
65	0xbced034e	-0.02893224
66	0x3d3b1761	0.045676593
67	0xbc0a1ef2	-0.0084302295
68	0x3d7958bd	0.060875643
69	0x3d550508	0.05200675
70	0x3d1b09ea	0.03785125
71	0xbdb69c56	-0.089165375
72	0xbc3e2307	-0.011605031
73	0xbdb6b492	-0.0892116
74	0x3db98c4c	0.09059963
75	0x3d0c9564	0.034322158
76	0x3dbd5bfc	0.0924606
77	0x3d284c46	0.041088365
78	0x3d579228	0.05262962
79	0x3d676b7d	0.056498993
80	0x3d93c0d1	0.07214511
81	0xbd87029e	-0.06592296
82	0x3cff362a	0.031153757
83	0x3c6311ab	0.013859193
84	0x3d0c8901	0.034310345
85	0xbd12f78d	-0.035880614
86	0x3d0d8ad1	0.034556214
87	0x3d3da8f7	0.046303716
88	0x3da6dcb5	0.08147565
89	0xbc44d32c	-0.012013238
90	0xbd5d486b	-0.05402414
91	0x3d73683f	0.05942559
92	0x3cb710fa	0.022346962
93	0x3cd7367d	0.0262711
94	0xbbbb3f61	-0.0057143425
95	0x3d22b6a7	0.039724972
96	0x3da6f855	0.08152834
97	0xbd85df60	-0.06536746
98	0xbd4b3e8a	-0.04962019
99	0xbb8df42f	-0.0043320875
100	0x3d0b1c3f	0.033962484
101	0xbcdfd4cc	-0.02732315
102	0xbdab33b7	-0.08359473
103	0x3d5a9dc0	0.0533731
104	0xbb8b0cc6	-0.004243466
105	0x3c11279c	0.008859541
106	0xbd53af2c	-0.05168073
107	0x3d06a1e2	0.032869227
108	0x3d90a295	0.0706226
109	0xbd03fd0b	-0.032223742
110	0xbce242c8	-0.027619734
111	0x3c3a4033	0.011367845
112	0x3c52baaa	0.012861887
113	0x3d917999	0.07103271
114	0x3beb6499	0.007183623
115	0xbd775bf7	-0.06039044
116	0xbc8fc866	-0.017551612
117	0xbd10d9ac	-0.035363838
118	0x3c39509f	0.0113107255
119	0x3cbdf48b	0.023187896
120	0xbb70647c	-0.0036680987
121	0x3b6a6a14	0.0035768794
122	0xbcf788ab	-0.030216536
123	0xbdb5c79e	-0.088759646
124	0x3d8091be	0.06277798
125	0x3d96801f	0.07348656
126	0xbcf48874	-0.029850222
127	0xbdaa2e7e	-0.08309649
128	0x3a7159c0	0.0009206794
129	0xbd8f3e7d	-0.069943406
130	0x3cda7a14	0.02666954
131	0x3c6823fb	0.014168735
132	0x3d559913	0.052147936
133	0x3bf20a22	0.007386462
134	0x3c26c860	0.010179609
135	0x3cab9ef2	0.020949814
136	0xbd13a5ec	-0.036046907
137	0xbdab6840	-0.083694935
138	0xbbb79a0b	-0.00560308
139	0xbd8acff0	-0.06777942
140	0x3c21338a	0.009838948
141	0x3bca6789	0.006176893
142	0xbda76f3a	-0.08175512
143	0x3cceb525	0.02523286
144	0xbce9cea5	-0.028540919
145	0xbcd5e409	-0.026109712
146	0xbd741780	-0.059592724
147	0xbd6e16c2	-0.058127172
148	0x3d48a4f7	0.048985448
149	0xbd1c5ef8	-0.038176507
150	0x3d9585de	0.07300924
151	0x3d2279d5	0.03966697
152	0x3d749dac	0.05972068
153	0xbd4eae3c	-0.05045913
154	0xbd3720b7	-0.044708934
155	0x3d9c0080	0.07617283
156	0x3d8fa459	0.07013769
157	0x3c950b72	0.018193934
158	0xbd1d0817	-0.038337793
159	0x3c4f579a	0.012655163
160	0x3c9fe9c5	0.01952065
161	0x3daef7fb	0.08543392
162	0xbd0169ad	-0.03159492
163	0x3d7e1910	0.06203562
164	0x3d06077b	0.032721978
165	0x3d9f9884	0.07792762
166	0xbd55b00b	-0.05216984
167	0xbc869037	-0.016426189
168	0xbd3b4731	-0.04572219
169	0x3c729f39	0.014808469
170	0x3d2e2f29	0.042525444
171	0xbcd6a982	-0.026203874
172	0x3d319cc1	0.043362383
173	0x3d1eaf73	0.03874154
174	0x3cc458fc	0.023968212
175	0x3d21e8b6	0.03952857
176	0xbd936bb6	-0.071982786
177	0x3c7eb52e	0.015546126
178	0xbd72e9eb	-0.059305113
179	0x3d54d6f3	0.051962804
180	0xbd9843ac	-0.074347824
181	0xbb8029da	-0.003911239
182	0x3dbb5354	0.09146753
183	0x3ccccab2	0.024998996
184	0xbd98fa21	-0.07469583
185	0xbc94a19c	-0.018143468
186	0x3da6cea3	0.081448816
187	0x3d94a72d	0.07258449
188	0xbd6cf07f	-0.057846542
189	0xbc8cea4a	-0.017201561
190	0xbc9b22cc	-0.01893749
191	0x3d5c51d7	0.053788986
192	0xbcb51020	-0.022102416
193	0xbdac945f	-0.08426737
194	0xbca70d21	-0.020392003
195	0x3d8bf5ef	0.068340175
196	0x3cbf8bdc	0.02338212
197	0xbd7eb0e4	-0.062180415
198	0x3ca1895d	0.01971882
199	0x3bf4c392	0.007469603
200	0x3d1dd537	0.038533416
201	0x3b59d42f	0.0033238044
202	0xbd0aa685	-0.03385021
203	0x3d680652	0.056646653
204	0xbbff2373	-0.0077862083
205	0x3d7f5527	0.062337067
206	0xbd65738c	-0.056018397
207	0xbdc27de6	-0.094966695
208	0xbca40442	-0.020021562
209	0xbd02bda6	-0.031919144
210	0xbd318b0a	-0.04334549
211	0xbcf438cd	-0.029812241
212	0xbafe14f6	-0.0019384909
213	0x3cd74b96	0.02628116
214	0x3dbd2d8d	0.09237204
215	0x3c97e6c5	0.018542657
216	0xbd8b45fb	-0.06800457
217	0x3c9093ae	0.017648544
218	0xbd1de34f	-0.038546856
219	0x3d27d5dd	0.04097544
220	0x3d8f12b0	0.06985986
221	0xbcc851bf	-0.024453042
222	0x3d92ac70	0.07161796
223	0xbd9b2d7b	-0.07577034
224	0x3ca28eff	0.019843576
225	0xbd1ae64c	-0.037817284
226	0x3d59dc76	0.053188764
227	0x3d85edc1	0.065394886
228	0xbd6dbab6	-0.05803939
229	0xbd36bd65	-0.044614214
230	0xbd1cb776	-0.0382609
231	0x3d721bfe	0.059108727
232	0xbc412acd	-0.01178999
233	0x3d4303bf	0.047610994
234	0x3d3db1a7	0.046312
235	0xbd90893e	-0.07057427
236	0x3c1b128e	0.009464873
237	0xbbf2abbd	-0.0074057267
238	0xbc52611b	-0.012840535
239	0xbd19654f	-0.03745013
240	0x3d527498	0.051380724
241	0xbcdc64d4	-0.026903547
242	0xbd788a13	-0.060678553
243	0x3d3d1643	0.04616381
244	0xbc89ece0	-0.016836584
245	0x3dbb3ed1	0.09142841
246	0x3d8e38aa	0.069444016
247	0xbda085a5	-0.07837991
248	0xbd223130	-0.03959769
249	0x3d088ab8	0.033335418
250	0xbd156654	-0.03647454
251	0x3d05c14e	0.032655053
252	0xbda14821	-0.078750856
253	0xbd1eb003	-0.038742077
254	0xbda9104c	-0.082550615
255	0x3db75101	0.08950997

lstm.bias_ih_l0 f4 [512]
0	0xbc3d59ae	-0.011557026
1	0xbd98f75d	-0.07469056
2	0xbd7174bb	-0.058949213
3	0xbc278875	-0.010225405
4	0x3c4ae20e	0.012382997
5	0x3d2329c9	0.03983477
6	0xbbb2724f	-0.0054457556
7	0xbcb92b20	-0.022603571
8	0xbc9c0efa	-0.01905011
9	0x3cc6467f	0.024203537
10	0xbd86a0ac	-0.065736145
11	0x3b3dd6ea	0.002896721
12	0x3c6bc61a	0.014390493
13	0xbd240cd1	-0.040051285
14	0xbd1f6188	-0.038911372
15	0xbb000ba4	-0.0019538188
16	0xbd8bde8b	-0.06829556
17	0xbd5cb400	-0.0538826
18	0x3d811ab8	0.06303924
19	0x3d1cc38b	0.03827242
20	0xbc94000a	-0.018066425
21	0x3d8cec2c	0.06880984
22	0x3da939b9	0.08262963
23	0x3c865b11	0.016400846
24	0x3d33630a	0.043795623
25	0x3c9266b2	0.017871235
26	0xbcae00a4	-0.02124054
27	0x3d945590	0.07242882
28	0xbcc4a8c1	-0.02400625
29	0xbd49ed3a	-0.049298503
30	0x3d30b394	0.04314001
31	0xbba16311	-0.0049251397
32	0x3d9c5c44	0.07634786
33	0xbdaf77d8	-0.0856778
34	0xbd22c715	-0.03974064
35	0x3d8e37b2	0.06944217
36	0xbaf18cdc	-0.001842882
37	0x3dadd241	0.084873684
38	0x3ba4cd7e	0.0050293794
39	0xbd24fb69	-0.040278826
40	0xbd3ac894	-0.045601442
41	0xbd2a71cf	-0.041612443
42	0xbd57a951	-0.052651707
43	0x3da6b9b0	0.08140886
44	0x3c50ea18	0.012751125
45	0xbcc6307e	-0.024193045
46	0xbdb04995	-0.08607785
47	0x3d9dabdc	0.07698795
48	0x3c3e990c	0.011633169
49	0x3dab5bf8	0.08367151
50	0x3d87e673	0.066357516
51	0x3d93e7ce	0.072219476
52	0xbca97cd9	-0.020689415
53	0x3d32bb43	0.043635618
54	0xbd6fea27	-0.058572914
55	0xbd10fa5f	-0.035395022
56	0xbd17412b	-0.036927383
57	0x3ca85303	0.020547396
58	0x3d8d2d5f	0.068934195
59	0xbdb06857	-0.08613651
60	0xbcba8050	-0.022766262
61	0x3d5b4920	0.053536534
62	0x398f0858	0.00027281302
63	0xbd54d56b	-0.051961344
64	0xbc8f5c9c	-0.017500214
65	0xbd16b27f	-0.03679132
66	0x3bff65fa	0.007794139
67	0xbd0ab091	-0.033859793
68	0xbcf53894	-0.029934205
69	0xbcb6032f	-0.022218315
70	0xbd141a63	-0.036157977
71	0xbdac941c	-0.08426687
72	0xbd5902b6	-0.0529811
73	0x3d3ba66e	0.045813017
74	0xbd57760b	-0.05260281
75	0x3cff34c1	0.031153085
76	0xbd9208e5	-0.07130603
77	0xbb5f73f2	-0.0034096208
78	0x3d5f1ff7	0.054473843
79	0xbd96ba48	-0.07359749
80	0x3b913634	0.0044315103
81	0xbd8341c0	-0.06409025
82	0x3dae6e60	0.08517146
83	0x3d0a2430	0.033725917
84	0x3d9c366e	0.07627569
85	0x3cce156b	0.025156697
86	0xbd8ede84	-0.06976035
87	0xbc8af4a3	-0.016962355
88	0xbce397ce	-0.027782347
89	0x3d4626e0	0.048376918
90	0xbd9c4579	-0.07630438
91	0x3d52da1a	0.05147753
92	0x3b52fb04	0.0032193074
93	0xbc2f2eea	-0.0106923375
94	0x3d8b939b	0.06815263
95	0x3d8261fd	0.06366346
96	0x3d6efde7	0.05834761
97	0xbc3ce388	-0.011528857
98	0xbda5ea52	-0.08101334
99	0xbd9372a6	-0.07199602
100	0x3d86f734	0.06590119
101	0x3d90bd50	0.070673585
102	0x3cde0902	0.027103905
103	0xbd8ea10a	-0.069643095
104	0xbd0f0016	-0.03491219
105	0x3c4d7194	0.012539286
106	0xbd95628e	-0.072941884
107	0x3d1d431e	0.038394086
108	0xbd1d9b45	-0.038478155
109	0x3cad9874	0.02119086
110	0x3b37a527	0.0028022022
111	0xbd9afd82	-0.07567884
112	0x3d968c90	0.07351029
113	0xbd28aa9a	-0.041178323
114	0x3b642e2a	0.0034817555
115	0xbd716723	-0.05893625
116	0x3da0d007	0.07852178
117	0x3d9ebf21	0.07751299
118	0x3cdf2885	0.027241
119	0x3d960205	0.07324604
120	0xbd0c58cc	-0.03426437
121	0x3d3f20bd	0.04666208
122	0x3c72c973	0.014818537
123	0xbd2239cc	-0.0396059
124	0xbda8576c	-0.082197994
125	0x3d6b0f0f	0.057387408
126	0x3d7a0d61	0.061047915
127	0xbcf9f636	-0.03051291
128	0xbd494dc4	-0.04914643
129	0x3bf6a69d	0.007527186
130	0xbcfb3f4f	-0.030669836
131	0x3d92d5ff	0.07169723
132	0xbd6354ea	-0.055500902
133	0x3db1299b	0.08650514
134	0x3d07d404	0.03316118
135	0xbd674878	-0.056465596
136	0x3cff9cf9	0.03120278
137	0x3cbc058a	0.02295186
138	0x3d31d41d	0.043415178
139	0x3bed9af3	0.0072511374
140	0x3d9aa49f	0.0755093
141	0x3d19e7a7	0.037574437
142	0x3d58b2c0	0.052904844
143	0xbd8846f3	-0.066541575
144	0xbda67537	-0.08127826
145	0x3d471485	0.048603553
146	0xba949584	-0.0011336063
147	0xbc8709d1	-0.016484173
148	0x3c9501e9	0.018189387
149	0x3d929094	0.07156482
150	0x3c7b93d5	0.01535507
151	0x3c404beb	0.01173685
152	0xbc94b04f	-0.018150477
153	0x3b4e11c5	0.0031443697
154	0xbcca91a8	-0.024727657
155	0xbd3e455a	-0.046452858
156	0xbdc6046f	-0.096688144
157	0x3d3e9a8c	0.046534106
158	0xbd9b0acb	-0.07570418
159	0xbd5e0e36	-0.05421277
160	0x3bf30c0c	0.0074172076
161	0x3d4cc0d5	0.049988586
162	0x3ca1b60c	0.019740127
163	0x3db1f776	0.086897776
164	0xbb6d65d9	-0.0036224036
165	0x3da53a62	0.08067776
166	0x3c751153	0.014957744
167	0x3b0a8360	0.0021135435
168	0x3d1ca9ac	0.03824775
169	0xbd4b8739	-0.049689505
170	0xbd4758f4	-0.048668817
171	0xbcbdff28	-0.023192957
172	0xbd3aab19	-0.045573328
173	0x3da648c5	0.081193484
174	0xbd399a0e	-0.045312934
175	0x3cd9b9c3	0.026577836
176	0xbd421399	-0.04738197
177	0xbc677a80	-0.014128327
178	0x3b501941	0.0031753334
179	0x3d7d5705	0.061850566
180	0xbd2725de	-0.040807597
181	0x3a7f110c	0.0009730018
182	0x3d4c79ca	0.049920835
183	0xbc60d559	-0.013722741
184	0x3db34ce2	0.087548986
185	0xbc5ab368	-0.013348438
186	0xbcbd64d2	-0.023119364
187	0x3cc3f1cb	0.023919007
188	0xbd8f3d34	-0.069940954
189	0xbd6f0694	-0.058355883
190	0x3d8dae41	0.06918002
191	0xbd5f18fd	-0.05446719
192	0xbd4b1a4d	-0.04958563
193	0x3d1a3096	0.03764399
194	0x3d4bd343	0.04976202
195	0x3d88c333	0.06677856
196	0xbc72b127	-0.014812744
197	0xbcb67f2a	-0.022277433
198	0xbdadda1a	-0.08488865
199	0xbcb97cff	-0.02264261
200	0x3cfe70ac	0.031059586
201	0xbd6dcf05	-0.058058757
202	0x3bf7a16e	0.0075570857
203	0x3c1b5ca9	0.009482541
204	0x3d3756cd	0.044760514
205	0xbb130a9f	-0.002243675
206	0xbd985cbd	-0.074395634
207	0x3c6ee9f2	0.014582144
208	0xbd4566c1	-0.048193697
209	0x3c59b568	0.0132878795
210	0x3d966acb	0.07344588
211	0x3d94b7e4	0.07261637
212	0x3da40fcb	0.08010825
213	0xbd8ca1b3	-0.06866779
214	0x3c5351a6	0.0128978845
215	0x3cc0e4dc	0.023546629
216	0xbda217a1	-0.07914663
217	0xbcf0dc0b	-0.0294018
218	0x3c9e16ec	0.01929804
219	0xbd726c78	-0.059185475
220	0x3c04f260	0.008114427
221	0x3da92c28	0.08260375
222	0x3d52f645	0.051504392
223	0x3d39ad28	0.04533115
224	0x3d89a6dc	0.06721279
225	0x3d8a51a8	0.06753856
226	0xbdaa5cd1	-0.083184846
227	0xbd682746	-0.05667808
228	0xbcc917bc	-0.02454745
229	0xbd4d08ba	-0.05005715
230	0x3d43673e	0.04770588
231	0x3d854313	0.06506934
232	0xbd1159d4	-0.035486057
233	0x3d3c1e4b	0.045927327
234	0xbd25d137	-0.040482726
235	0x3da33214	0.07968536
236	0x3dacd0d3	0.084382676
237	0x3d5b71f2	0.053575464
238	0xbd8910ad	-0.06692634
239	0x3db421f5	0.08795539
240	0x3d2ea64e	0.04263907
241	0xbd451696	-0.048117243
242	0xba5a9014	-0.00083375094
243	0x3d7abdf7	0.06121632
244	0x3c4bfb73	0.012450087
245	0xbdb84ea4	-0.089993745
246	0x3da4afa8	0.08041316
247	0x3b44596e	0.002996053
248	0x3cd481c3	0.025940781
249	0xbd88fcba	-0.06688829
250	0xbc47c709	-0.01219345
251	0x3dabcb61	0.08388401
252	0x3d18fd18	0.037350744
253	0x3d3d4efe	0.04621791
254	0x3da46e9c	0.080289096
255	0x3d53b4d2	0.051686116

lstm.bias_hh_l0 f4 [512]
0	0xbc2ae2c2	-0.01043004
1	0xbdbe1e9d	-0.09283183
2	0xbda678b2	-0.081284896
3	0x3d251b52	0.040309258
4	0xbd25bea9	-0.04046503
5	0x3da8fdd2	0.082515374
6	0xbd5b6ba5	-0.053569455
7	0x3c4c08b4	0.012453247
8	0x3dbd1552	0.09232582
9	0xbd54a522	-0.051915295
10	0x3b3401a6	0.0027466803
11	0x3d4f47f0	0.050605714
12	0x3cefc73b	0.029269805
13	0x3c5355a9	0.012898841
14	0x3d9d69b7	0.07686179
15	0x3d4f814a	0.05066041
16	0x3d39fc81	0.045406822
17	0x3d28a26a	0.041170515
18	0x3c9029e3	0.017598098
19	0x3cbd9794	0.023143567
20	0xbd6ea5c8	-0.05826357
21	0xbd825e93	-0.06365695
22	0x3bb75cfd	0.005595802
23	0xbb8c0f89	-0.004274313
24	0xbc954178	-0.018219694
25	0xbd7a8b2e	-0.06116789
26	0x3c9a166e	0.018809523
27	0x3d8e81f1	0.06958378
28	0xbd2448a0	-0.040108323
29	0x3d841d69	0.06450922
30	0xbd567e49	-0.05236653
31	0x3c6381d7	0.013885937
32	0xbc8d5bc1	-0.017255666
33	0x3d2237fe	0.03960418
34	0x3d924ab1	0.071431525
35	0x3c57b80f	0.013166442
36	0x3a7f1aee	0.0009731491
37	0xbc8d1925	-0.017223904
38	0xbd4a3643	-0.049368154
39	0x3d803869	0.062607594
40	0x3d377c0c	0.044796035
41	0xbbadf10a	-0.005308275
42	0xbdb0555a	-0.086100295
43	0x3c5b99e0	0.013403386
44	0x3d187d3a	0.0372288
45	0x3d24e902	0.040261276
46	0xbda037cd	-0.07823143
47	0x3d96dd82	0.07366468
48	0x3d018a65	0.031626124
49	0x3db3bee6	0.08776645
50	0xbc76a8c8	-0.015054889
51	0x3ca72df1	0.020407649
52	0x3d82afc0	0.06381178
53	0x3d788030	0.060669124
54	0x3d9115ca	0.07084234
55	0xbd66309d	-0.056198705
56	0xbd9438f5	-0.07237426
57	0xbd9b971a	-0.0759718
58	0xbdaf84a6	-0.085702226
59	0xbd94576f	-0.07243239
60	0xbc802c19	-0.015646027
61	0x3d966705	0.07343868
62	0x3d70ca3b	0.058786612
63	0xbd223a2e	-0.039606266
64	0x3da561ff	0.08075332
65	0x3c92acea	0.017904717
66	0xbd69320f	-0.056932505
67	0xbd81d207	-0.06338888
68	0x3bfea35b	0.0077709383
69	0x3cde21e5	0.027115772
70	0x3b4dfe1b	0.0031431976
71	0xbc69a4b2	-0.014260458
72	0xbd0c0386	-0.034183048
73	0x3c93c2c5	0.01803721
74	0xbcbc6ab1	-0.023000093
75	0x3ce44886	0.027866613
76	0x3d4b58b2	0.049645133
77	0xbc11342e	-0.008862538
78	0x3b820ec4	0.0039690454
79	0x3c9e0935	0.0192915
80	0x3b7a4230	0.0038186423
81	0x3d8e28f0	0.06941402
82	0xbdae0498	-0.0849697
83	0x3d94f048	0.072723925
84	0x3d0086f2	0.031378694
85	0xbd2746dc	-0.04083906
86	0x3cddefbc	0.027091853
87	0xbd9156aa	-0.07096608
88	0x3b615106	0.003438057
89	0x3bc9f402	0.006163121
90	0xbc10fa39	-0.00884872
91	0x3ad311be	0.001610331
92	0xbc914386	-0.017732393
93	0x3d988f37	0.07449191
94	0x3c39e34f	0.0113456985
95	0x3d40391d	0.046929467
96	0x3db693d7	0.08914917
97	0x3d47613d	0.048676718
98	0xbd66160f	-0.05617338
99	0x3ce75b16	0.028241675
100	0xbdaa50a9	-0.08316166
101	0xbd2cca46	-0.04218509
102	0x3bbeddd3	0.0058247834
103	0x3c9d3760	0.019191444
104	0x3dac5884	0.084153205
105	0xbd66a78d	-0.056312133
106	0xbcaca9e0	-0.021077096
107	0x3d1612c9	0.03663901
108	0xbd695d1b	-0.056973558
109	0xbd89bc7e	-0.06725405
110	0xbcd154c2	-0.025553111
111	0x3d90f487	0.0707789
112	0xbd9d3701	-0.07676507
113	0xbccd94d1	-0.025095375
114	0x3dad8126	0.08471899
115	0x3d0f42da	0.034975864
116	0xbd45c6ff	-0.04828548
117	0xbda1cf2a	-0.079008415
118	0xbd6925ce	-0.05692082
119	0xbd2091df	-0.039201614
120	0xbd87224d	-0.06598339
121	0x3d87fa85	0.0663958
122	0xbc1a7eff	-0.009429692
123	0xbcef7ce5	-0.029234359
124	0xba4feb07	-0.0007931445
125	0xbc39e6f5	-0.011346568
126	0xbdb48d11	-0.08815969
127	0xbba7ce75	-0.005121047
128	0x3d9fe761	0.07807804
129	0xbd93998c	-0.07207021
130	0xbdb076a4	-0.08616379
131	0x3d84fe50	0.06493819
132	0x3d44ae78	0.04801795
133	0xbdaef8b5	-0.08543531
134	0xbd75eeba	-0.06004212
135	0xbcd093f1	-0.025461169
136	0xbd2a44b3	-0.041569423
137	0x3d786721	0.060645226
138	0xbd5615b3	-0.052266788
139	0xbd9fe778	-0.07807821
140	0x3da86762	0.08222844
141	0x3d85d089	0.065339155
142	0xbd99d2a3	-0.07510879
143	0xbcbdcac8	-0.023167983
144	0x3c0e7da1	0.008696944
145	0x3c8e1fef	0.017349211
146	0x3d5ae3d1	0.05343992
147	0xbd7e3ee8	-0.06207171
148	0xbd4c5b3e	-0.049891703
149	0xbad003b0	-0.001587024
150	0xbda751b3	-0.0816988
151	0xbd8995c7	-0.06718021
152	0x3d042579	0.0322623
153	0xbd11b34e	-0.03557139
154	0x3c806074	0.015670992
155	0x3cf5f540	0.03002417
156	0x3cacd05d	0.02109545
157	0xbbc4f28a	-0.006010358
158	0x3bffc5e6	0.0078055738
159	0x3d26e60c	0.040746734
160	0xbc782564	-0.015145633
161	0x3c0d621d	0.008629349
162	0x3d923b00	0.071401596
163	0x3d8e63b4	0.069526106
164	0x3da286cf	0.07935869
165	0x3daf56c8	0.08561474
166	0xbd22324a	-0.03959874
167	0xbd03e959	-0.03220496
168	0xbd65f7db	-0.056144577
169	0xbc9afd68	-0.018919662
170	0x3d38d98e	0.04512935
171	0x3d65625c	0.056002006
172	0xbd46ec11	-0.048564974
173	0xbca2e2b0	-0.019883484
174	0xbcc407d2	-0.02392951
175	0x3d90be7a	0.070675805
176	0x3c993687	0.018702758
177	0xbcc89706	-0.024486076
178	0x3d55ae10	0.052167952
179	0xbda2ddf9	-0.07952494
180	0xbd4be27f	-0.04977655
181	0xbdb58a44	-0.08864263
182	0x3d10dd93	0.03536756
183	0x3d187d39	0.037228797
184	0x3da85063	0.082184575
185	0xbcf94e76	-0.03043292
186	0x3d96f3d0	0.07370722
187	0x3cebefba	0.028800834
188	0xb8434980	-4.6560075e-05
189	0xbd673a86	-0.056452297
190	0x3db0117e	0.08597086
191	0x3ce8101a	0.02832799
192	0x3d6c57cd	0.05770092
193	0xbd3384e0	-0.04382789
194	0x3d4d2eb5	0.05009337
195	0x3ce0b710	0.027431041
196	0xbd9a5de5	-0.0753744
197	0xbd1fcfe2	-0.039016612
198	0xbd84efa3	-0.064910196
199	0x3d26309a	0.040573694
200	0x3cb8b253	0.02254597
201	0x3db02202	0.086002365
202	0xbda80aff	-0.08205222
203	0x3d94ffc3	0.07275345
204	0x3d78756e	0.060658865
205	0x3daba21d	0.0838053
206	0x3c08b372	0.008343564
207	0x3dc40b7b	0.09572502
208	0x3ccfc92c	0.02536448
209	0xbd64ffcc	-0.05590801
210	0xbbb2d9e2	-0.0054581026
211	0x3d1fc576	0.039006673
212	0x3da18574	0.07886782
213	0x3d89ea91	0.06734193
214	0x3d61c84a	0.05512265
215	0x3d33a84c	0.043861672
216	0xbda8d0c4	-0.08242944
217	0x3cba35d3	0.022730744
218	0x3d0e5796	0.034751497
219	0xbc51446c	-0.012772661
220	0x3d21da93	0.03951509
221	0x3cba7d06	0.022764694
222	0x3d9ba8f7	0.07600587
223	0xbd2b7bf0	-0.041866243
224	0xbc7bb756	-0.015363535
225	0xbd9a8003	-0.075439475
226	0xbdbd4bb7	-0.09242957
227	0x3dbbc74b	0.091688715
228	0xbda79d3c	-0.08184287
229	0xbd665c5e	-0.056240432
230	0x3d9320ef	0.07184016
231	0x3d8fe823	0.070266984
232	0x3daf745c	0.08567116
233	0x3dc07092	0.09396471
234	0xbc4c3811	-0.012464539
235	0xbda0917c	-0.07840249
236	0xbbed13a1	-0.007235006
237	0xbca80555	-0.020510355
238	0x3d687dba	0.056760527
239	0x3d1f5ce3	0.038906943
240	0x3d371d86	0.04470589
241	0xbdb07385	-0.086157836
242	0x3d2fa34f	0.042880353
243	0x3d99a004	0.07501224
244	0xbd9154aa	-0.070962265
245	0xbc9061d8	-0.01762478
246	0x3d9e955c	0.07743332
247	0xbd027fcc	-0.031860158
248	0xbd7616d1	-0.060080353
249	0x3c53dd8e	0.012931241
250	0xbcdebd32	-0.027189825
251	0xbcc7ff47	-0.024413718
252	0x3c1fffd4	0.009765584
253	0x3c440c1e	0.01196578
254	0x3c3d11ef	0.01153992
255	0xbd7dba8a	-0.061945476

lstm.weight_ih_l0_reverse f4 [512, 1]
0	0x3cd6ba25	0.026211808
1	0x3d4abef6	0.04949852
2	0x3da4d298	0.0804798
3	0xbda613a3	-0.08109214
4	0x3caecdb5	0.021338323
5	0xbd1aa4aa	-0.037754692
6	0x3c524d97	0.012835882
7	0x3db1e75a	0.08686705
8	0x3d94ee82	0.07272054
9	0x3d73ac58	0.05949053
10	0xbdbdf8b8	-0.09275955
11	0x36731700	3.622321e-06
12	0x3d815b28	0.06316215
13	0x3d43b516	0.04778012
14	0x3d36edec	0.044660494
15	0xbd19abb0	-0.03751725
16	0x3b615f20	0.0034388974
17	0x3d166f57	0.036727276
18	0xbd8b7cd7	-0.06810921
19	0x3d7de550	0.061986268
20	0x3d25c169	0.040467653
21	0x3da84d4c	0.08217868
22	0xbda05688	-0.078290045
23	0xbd9fc096	-0.07800405
24	0xbd7de50e	-0.06198602
25	0x3cb55dc3	0.022139436
26	0xbbb96847	-0.005658183
27	0x3d38471a	0.044989683
28	0xbd6abbc6	-0.05730798
29	0xbd26782e	-0.040641956
30	0x3d97215b	0.07379409
31	0xbd2f6842	-0.042824037
32	0x3cfe3a5a	0.031033684
33	0xbd881e5b	-0.06646415
34	0xbc7fc80a	-0.015611658
35	0x3d9ccd77	0.07656377
36	0xbd9dc830	-0.07704198
37	0x3d6353f4	0.055499986
38	0xbd66956e	-0.05629485
39	0x3d920f61	0.071318395
40	0xbd4a41d0	-0.04937917
41	0x3cd462c1	0.025925996
42	0x3d68100d	0.056655932
43	0xbd41e614	-0.04733856
44	0x3d81fb3f	0.063467495
45	0x3cf3b89b	0.029751113
46	0xbc889fd4	-0.016677774
47	0x3d887a98	0.06664008
48	0x3cef0709	0.02917816
49	0xbc809bd2	-0.0156993
50	0xbd73812b	-0.059449356
51	0x3d8cd4e1	0.06876541
52	0x3d3188c4	0.04334332
53	0x3d6c41cd	0.05767994
54	0x3db40478	0.08789915
55	0x3d90e0ec	0.070741504
56	0x3b9f8683	0.00486833
57	0xbd73f2b5	-0.059557635
58	0x3cbb9338	0.022897348
59	0xbd3bd807	-0.045860317
60	0x3d927801	0.07151795
61	0xbcfa06cb	-0.030520817
62	0x3d81775f	0.06321596
63	0x3d8e5d10	0.06951344
64	0x3d641700	0.055685997
65	0x3d6cc211	0.057802264
66	0x3d47e758	0.04880461
67	0x3d4d36ba	0.05010102
68	0x3d048888	0.03235677
69	0x3d800cfe	0.06252478
70	0x3c6a1df1	0.014289365
71	0x3d62fd96	0.05541762
72	0xbd7c7f4d	-0.06164484
73	0xbce68fad	-0.028144682
74	0xbd6e774d	-0.058219243
75	0xbd3b8222	-0.0457784
76	0xbd298c08	-0.04139331
77	0xbd31ddf8	-0.043424577
78	0x3bfd9666	0.007738876
79	0xbc0550a8	-0.008136906
80	0x3c200a61	0.0097680995
81	0xbdad2a62	-0.084553495
82	0xbd42b94f	-0.047540005
83	0x3d307ec9	0.04308966
84	0xbcaacb64	-0.020848937
85	0xbd621993	-0.05520017
86	0x3d40ec9d	0.047100652
87	0x3d23f89e	0.04003202
88	0x3c34984f	0.011022641
89	0x3da0977a	0.07841392
90	0x3d685a5f	0.05672681
91	0xbb027d44	-0.001991109
92	0x3c93a2f6	0.018022042
93	0xbd60ec33	-0.054912757
94	0xbd15d7a5	-0.036582608
95	0xbd71d8d9	-0.059044693
96	0x3c56374e	0.013074709
97	0xbd12a142	-0.03579832
98	0xbc34d556	-0.011037191
99	0xbd832fcd	-0.06405602
100	0x3d5ababd	0.053400744
101	0xbd635262	-0.05549849
102	0x3d5b4a8d	0.053537894
103	0xbb0258c4	-0.0019889334
104	0x3dc0e108	0.09417921
105	0xbaa53517	-0.0012604323
106	0x3d8ac476	0.06775753
107	0xba576c5c	-0.0008217746
108	0xbd523312	-0.051318236
109	0x3da5a094	0.080872685
110	0xbda6dc09	-0.08147437
111	0xbd979494	-0.07401386
112	0x3ca2de4c	0.01988139
113	0xbd9d0f62	-0.0766895
114	0xbcc29d36	-0.023756605
115	0xbd8c3f14	-0.06847969
116	0x3b9b7fe1	0.004745469
117	0x3da44e31	0.08022726
118	0xbc776444	-0.015099589
119	0xbca029c0	-0.019551158
120	0x3ca0ef58	0.019645378
121	0xbd5da2e9	-0.05411044
122	0x3d833827	0.064071946
123	0x3d9bfe5f	0.07616877
124	0xbb732dd6	-0.0037106178
125	0xbd2a79d6	-0.041620098
126	0x3d6538d0	0.055962384
127	0x3db9a3b2	0.090644255
128	0xbd7bd03e	-0.061477892
129	0xbdac89a4	-0.0842469
130	0xbbb74e3c	-0.005594043
131	0x3d9b355f	0.07578539
132	0xbdab8c4d	-0.083763696
133	0xbc19e9e5	-0.009394144
134	0x3d94c19f	0.07263493
135	0x3d7bc14a	0.06146363
136	0x3c6698ff	0.014074563
137	0xbd120f57	-0.03565916
138	0xbda72174	-0.081606776
139	0xbd50336b	-0.050830286
140	0x3d3b49b6	0.045724593
141	0x3d7f6744	0.06235434
142	0xbb7ec113	-0.0038872405
143	0xbc8e70ba	-0.017387737
144	0xbdc6e0f9	-0.09710879
145	0xbc86b1d9	-0.016442226
146	0x3da205c4	0.07911256
147	0x3ca4d7c9	0.020122426
148	0xbd8866bf	-0.06660222
149	0x3d46b1f3	0.04850955
150	0x3d131997	0.035913076
151	0x3c137642	0.009000363
152	0x3c9578c5	0.018246064
153	0x3d68f2cd	0.056872178
154	0xbd0b4157	-0.03399786
155	0xbd4ea410	-0.05044943
156	0x3d310a05	0.043222446
157	0xbd37b389	-0.044848952
158	0xbd874c13	-0.06606307
159	0x3d2c1b7f	0.04201841
160	0x3ce5fb74	0.028074004
161	0x3cf4993c	0.029858224
162	0xbc5e4d23	-0.0135681955
163	0xbaab8a8e	-0.0013087557
164	0xbc8e96d3	-0.017405903
165	0x3d26fd1d	0.04076873
166	0xbbc9ef6c	-0.0061625745
167	0x3d454474	0.048160985
168	0xbc51069c	-0.012757923
169	0x3cd961dc	0.02653592
170	0x3dae5ac3	0.08513405
171	0xbd9fe696	-0.07807653
172	0xbd8fe84b	-0.07026728
173	0xbcf80cee	-0.030279603
174	0x3cffe604	0.03123761
175	0xbcf595ed	-0.029978717
176	0x3d9cd2d4	0.076574
177	0xbc751767	-0.014959193
178	0xbd890a9b	-0.06691476
179	0xbd136dec	-0.0359935
180	0xbd3e11af	-0.046403583
181	0xbd35f8c9	-0.044426713
182	0x3d46e899	0.048561666
183	0x3d80cb28	0.06288749
184	0xbc83f4e6	-0.016107988
185	0x3c5829fd	0.013193605
186	0x3c1b69b5	0.009485652
187	0xbd8b07c3	-0.0678859
188	0x3d11f9c6	0.035638593
189	0x3d8ff796	0.07029645
190	0x3d1fcd07	0.03901389
191	0xbd2d3d40	-0.04229474
192	0x3ced674d	0.028979922
193	0xbd56af3c	-0.05241321
194	0x3d985bbb	0.07439371
195	0x3d96a1a2	0.07355048
196	0x3c16a5d4	0.00919481
197	0xbd3e9384	-0.0465274
198	0xbd897427	-0.067116074
199	0xbd26487c	-0.04059647
200	0x3d65d593	0.056111883
201	0xbc5f49e7	-0.01362846
202	0x3bf875b9	0.007582393
203	0x3dac34dd	0.0840852
204	0xbc4dc222	-0.012558492
205	0x3d16c0b8	0.036804885
206	0xbd9f26dc	-0.07771084
207	0x3d1a95c9	0.037740503
208	0xbda3c462	-0.079964414
209	0xbb05ea4a	-0.0020433837
210	0xbd7b5092	-0.061356135
211	0xbda98a70	-0.08278358
212	0x3c0bef4c	0.00854094
213	0xbd98a6ad	-0.07453666
214	0xbd37e399	-0.04489479
215	0xbd055a0c	-0.03255658
216	0x3d6c3f50	0.057677567
217	0xbd21071f	-0.03931343
218	0xbcbee433	-0.023302173
219	0xbb9e0ecd	-0.0048235417
220	0x3d2a2c8c	0.04154639
221	0x3c8ae7ab	0.016956171
222	0xbd81408f	-0.06311142
223	0xbd09a877	-0.033607926
224	0xbd5478c1	-0.051872972
225	0xbda2dc47	-0.07952171
226	0xbd52e7ff	-0.05149078
227	0x3d757620	0.059927106
228	0x3d851bce	0.06499444
229	0x3d522920	0.05130875
230	0xbd82530b	-0.063634954
231	0xbcec1c7a	-0.028822172
232	0xbd9c2f8c	-0.07626256
233	0x3cb04cd6	0.021521013
234	0x3c18cfab	0.009326856
235	0x3b834b8b	0.004006808
236	0xbdb30b26	-0.08742361
237	0xbdb55792	-0.08854593
238	0xbc9aeacb	-0.018910786
239	0x3db597e3	0.08866861
240	0x3c6e34a1	0.014538915
241	0x3d73bc57	0.059505787
242	0x3d08a679	0.033361886
243	0x3d0fa544	0.03506972
244	0xbc799921	-0.015234263
245	0xbc9f7a48	-0.019467488
246	0xbdb83c61	-0.08995891
247	0xbd085e8a	-0.033293284
248	0xba7e0e81	-0.00096914923
249	0x3d977954	0.073961884
250	0x3d89884f	0.06715452
251	0x3d168930	0.036751926
252	0xbb2fc909	-0.0026822707
253	0x3d631313	0.055438112
254	0x3cb2724a	0.021783013
255	0x3b0208a0	0.0019841567

lstm.weight_hh_l0_reverse f4 [512, 128]
0	0x3d6bc208	0.05755809
1	0xbdae1ce2	-0.08501603
2	0xbc966fc1	-0.018363835
3	0x3c8d03b7	0.017213685
4	0x3c3a1e46	0.011359757
5	0xbdae7305	-0.08518032
6	0xbd8ecdfa	-0.06972881
7	0x3b96922a	0.004595061
8	0x3db24d46	0.08706145
9	0x3d8ab350	0.067724824
10	0xbd9ad9fd	-0.07561109
11	0xbcd043a3	-0.025422877
12	0x3be038e9	0.0068427217
13	0xbb716fa2	-0.003684022
14	0xbbdd9279	-0.0067618457
15	0x3db095a4	0.08622292
16	0xbd434083	-0.047668945
17	0xbb1b6375	-0.0023710404
18	0x3d32f570	0.0436911
19	0x3d9765a6	0.07392435
20	0x3d175637	0.036947455
21	0x3cb27029	0.021781998
22	0xbd4c9262	-0.04994429
23	0xbd730ec7	-0.059340265
24	0x3da598df	0.080857985
25	0xbcfd1cd3	-0.030897534
26	0x3d212dec	0.039350435
27	0x3c78890e	0.015169395
28	0x3c8cce76	0.017188292
29	0x3d1a5597	0.03767928
30	0x3d321bd6	0.043483578
31	0xbc2531c3	-0.010082665
32	0xbd9fb5c9	-0.07798345
33	0xbd3a653c	-0.0455067
34	0xbca95660	-0.02067107
35	0xba4b44cb	-0.00077540864
36	0xbdb2b924	-0.08726719
37	0x3cea1095	0.02857236
38	0xbdabbef6	-0.08386032
39	0xbc86a9a0	-0.016438305
40	0x3d7e987f	0.06215715
41	0xbbccef74	-0.006254131
42	0x3d9f132f	0.07767331
43	0x3ce0f61f	0.02746111
44	0xbd905f2f	-0.07049405
45	0xbd50f0da	-0.051010944
46	0xbda8a40a	-0.08234413
47	0xbd9e0efe	-0.07717703
48	0x3d2d0e6f	0.042250093
49	0x3d4beb5e	0.04978501
50	0x3dac7f66	0.08422737
51	0xbd959655	-0.07304064
52	0xbd396e33	-0.04527111
53	0xbd637364	-0.055529967
54	0xbbb9a092	-0.0056648934
55	0x3bfda2ff	0.007740378
56	0x3b6c39ac	0.0036045117
57	0x3c908ba0	0.017644703
58	0x3d8df9f4	0.069324404
59	0x3bb8741e	0.0056290766
60	0x3d00ef9a	0.0314785
61	0xbca00237	-0.019532306
62	0x3da4c39b	0.08045121
63	0xbdaea2bd	-0.085271336
64	0xbd891b04	-0.06694606
65	0xbd331065	-0.043716807
66	0xbccb030e	-0.02478173
67	0x3ae1a383	0.0017214868
68	0x3d1f33a8	0.038867623
69	0x3da741ea	0.08166869
70	0xbd1315f5	-0.03590961
71	0xbc88c6ea	-0.016696412
72	0xb9587fbf	-0.00020646954
73	0xbd23d718	-0.04000005
74	0x3d85f35f	0.0654056
75	0x3d38ed19	0.04514799
76	0x3bf85c7e	0.0075793853
77	0xbcdbbb7f	-0.026822804
78	0xbc9e2d5c	-0.019308738
79	0xbb8fbeac	-0.0043867435
80	0x3c7e6489	0.015526899
81	0xbc7bcfe5	-0.01536939
82	0xbd239fe0	-0.03994739
83	0xbd28de2d	-0.04122751
84	0xb9a9c805	-0.00032383218
85	0xbd51886b	-0.05115549
86	0x3d90b786	0.07066254
87	0x3dc09e2a	0.094051674
88	0x3da7c4f5	0.081918634
89	0xbdb54b6d	-0.08852277
90	0x3d9d832d	0.076910354
91	0x3d2eeecb	0.0427082
92	0xbd08d9de	-0.0334109
93	0x3d94231b	0.07233258
94	0x3dacf42a	0.08445008
95	0xbd88313a	-0.06650014
96	0xbceed398	-0.02915363
97	0x3d264dd2	0.04060156
98	0x3bb00bff	0.005372524
99	0xbd8deb74	-0.06929675
100	0x3d218803	0.03943635
101	0x3d6b8f5c	0.057509765
102	0x3b861778	0.004092153
103	0xbd42bf09	-0.047545467
104	0xbd94d5e2	-0.072673574
105	0xbd97c85e	-0.07411264
106	0xbd6b5dfe	-0.057462685
107	0xbd89690a	-0.06709488
108	0xbbec226b	-0.0072062514
109	0x3c9a6478	0.018846735
110	0xbdb91e3c	-0.0903897
111	0x3c2db75b	0.010602797
112	0x3d1711dc	0.036882266
113	0x3cd19837	0.025585277
114	0x3cb9edfe	0.022696491
115	0xbce201fb	-0.027588835
116	0xbcc3528d	-0.023843074
117	0xbc767411	-0.015042321
118	0xbc85b87a	-0.016323317
119	0xbda68463	-0.081307195
120	0x3d9fc746	0.0780168
121	0xbc36aff1	-0.011150346
122	0x3d50edc8	0.051008016
123	0x3c8c96ba	0.017161716
124	0x3d811c64	0.06304243
125	0xbd561d4a	-0.052274026
126	0x3ce8244c	0.02833762
127	0xbd84b6de	-0.06480192
128	0xbd80ac11	-0.06282819
129	0xbd98e3df	-0.07465338
130	0xbd27981c	-0.040916547
131	0xbbb733df	-0.0055909003
132	0x3daaf72d	0.08347926
133	0xbcf7cc73	-0.030248856
134	0xbd8db757	-0.06919735
135	0xbc7b0d33	-0.015322971
136	0x3d811ce4	0.063043386
137	0x3d17d7b0	0.03707093
138	0x3c922777	0.017841084
139	0x3db171b6	0.08664267
140	0xbd20f6aa	-0.039297737
141	0x3d1950d3	0.037430596
142	0xbd171805	-0.03688814
143	0xbc9f0149	-0.019409792
144	0xbcdddf5e	-0.027084049
145	0x3d998158	0.074953735
146	0xbd91c688	-0.07117945
147	0x3d65b3ec	0.05607979
148	0x3d8ff8fd	0.070299126
149	0x3d92305e	0.071381316
150	0xbcfd8fec	-0.030952416
151	0xbd581737	-0.052756514
152	0xbb1acf98	-0.002362227
153	0xbae3e740	-0.0017387643
154	0xbd8b0266	-0.06787567
155	0xbbcde4a1	-0.006283358
156	0x3d97c45e	0.07410501
157	0xbd3cdf52	-0.046111412
158	0x3d105098	0.03523311
159	0x3d2ff0f4	0.0429544
160	0xbd9808c9	-0.07423551
161	0x3d5ea59f	0.054357167
162	0x3d9a629c	0.075383395
163	0x3dacc4e0	0.084359884
164	0xbd3641d5	-0.044496376
165	0xbcf9d234	-0.03049574
166	0x3d3a657c	0.04550694
167	0xbd21f5c1	-0.03954101
168	0xbc78425e	-0.015152542
169	0xbd3e76aa	-0.046499886
170	0xbc382f04	-0.011241678
171	0xbd98f1d4	-0.07468
172	0xbd2e4b4b	-0.042552274
173	0xbb972de2	-0.004613624
174	0xbcc1bf25	-0.023650715
175	0xbda1dcf5	-0.07903472
176	0x3b4c9a58	0.0031219926
177	0x3da34a1c	0.079731196
178	0x3d532c35	0.05155583
179	0xbc49891c	-0.012300756
180	0xbd39c184	-0.045350567
181	0x3daa6926	0.08320837
182	0xbbacbc8f	-0.0052715014
183	0x3b53bd1c	0.0032308763
184	0xbb932f3a	-0.004491714
185	0x3d95e52a	0.073191
186	0xbd9ce26c	-0.07660374
187	0xbd11dfd4	-0.03561385
188	0xbda266dc	-0.07929775
189	0xbc715478	-0.014729612
190	0xbce03cea	-0.027372796
191	0xbdb31a62	-0.087452665
192	0xbd51de50	-0.051237404
193	0xbd687c64	-0.056759253
194	0x3cbb953d	0.02289831
195	0x3c8de6ec	0.017322026
196	0xbabb9a0e	-0.001431288
197	0x3d56dd98	0.052457422
198	0xbda500c8	-0.0805679
199	0x3c02c2d5	0.007981022
200	0x3d8386d5	0.064222015
201	0x3d4aab30	0.049479663
202	0xbd2cfdc0	-0.042234182
203	0xbda6922c	-0.08133349
204	0xbda5135a	-0.08060332
205	0xbd2c652c	-0.042088673
206	0x3d7b7e91	0.0614
207	0x3d6844f7	0.056706395
208	0x3d0ebe63	0.034849536
209	0xb9936659	-0.0002811428
210	0xbcae9495	-0.021311084
211	0x3d69973a	0.057028987
212	0xbd74191b	-0.059594255
213	0x3ca643ff	0.020296095
214	0xbd490b1b	-0.049082857
215	0xbd053be6	-0.032527827
216	0xbccc0d2f	-0.02490863
217	0xbdb1932c	-0.08670649
218	0xbcec8b4b	-0.028875014
219	0xbd247fef	-0.04016107
220	0x3d98898e	0.074481115
221	0x3b45ca26	0.0030180304
222	0xbda7c87f	-0.081925385
223	0xbcaf21c1	-0.0213784
224	0xbd9c7759	-0.07639951
225	0x3d5d0d11	0.05396754
226	0x3bc2d880	0.005946219
227	0x3d600d1e	0.05470001
228	0x3c3b1770	0.011419162
229	0x3c592df2	0.013255583
230	0xbc19878c	-0.009370696
231	0xbc437b28	-0.011931218
232	0x3d9323ca	0.071845606
233	0xbd287a95	-0.04113253
234	0xbd0eabd1	-0.034831826
235	0x3cb77c1c	0.022398047
236	0xbda49589	-0.08036334
237	0x3d52d017	0.05146798
238	0x3d8d2b84	0.068930656
239	0x3d8daca1	0.06917692
240	0xbcd5af57	-0.026084585
241	0x3d54d44f	0.051960286
242	0xbc32fb8f	-0.010924234
243	0xbd9b44c7	-0.075814776
244	0x3da34d35	0.079737104
245	0xbd0bdc10	-0.034145415
246	0xbcc7f807	-0.02441026
247	0xbdb35d45	-0.08758024
248	0xbcec1b5f	-0.028821645
249	0x3d486fed	0.048934866
250	0x3d950f78	0.07278341
251	0x3c0a69c3	0.008448067
252	0x3d81068d	0.063000776
253	0xbd436038	-0.047699183
254	0x3bccaa5b	0.006245894
255	0xbc29ffb1	-0.010375903

lstm.bias_ih_l0_reverse f4 [512]
0	0xbcd66f21	-0.026176037
1	0x3ba36f1b	0.00498761
2	0x3d9e394c	0.07725772
3	0xbd1e9c59	-0.038723323
4	0x3d8a5d29	0.0675605
5	0x3d1b3f69	0.03790227
6	0xbdb83242	-0.08993961
7	0xbc100c2f	-0.008791967
8	0x3d84d752	0.064863816
9	0x3d778a33	0.06043453
10	0xbd20ded9	-0.039275024
11	0xbd05374e	-0.032523446
12	0xbd8f81ee	-0.07007204
13	0xbb477cb3	-0.0030439317
14	0x3daa3377	0.083105974
15	0x3d9cee71	0.076626666
16	0xbd9ae48e	-0.075631246
17	0xbc6563d5	-0.014000853
18	0x3c0a2f6c	0.008434158
19	0xbd69f0c9	-0.057114396
20	0x3d171188	0.036881953
21	0x3c902e33	0.017600155
22	0xbd00a9f6	-0.031412087
23	0x3d9d9345	0.07694105
24	0x3d21ffaa	0.03955046
25	0x3b847734	0.0040425304
26	0xbd903f04	-0.07043269
27	0x3ce4722a	0.027886469
28	0xbdbb1685	-0.09135155
29	0x3c23ec64	0.01000509
30	0x3be38141	0.0069428985
31	0xbce8434e	-0.028352406
32	0x3d560903	0.052254688
33	0xbdad1725	-0.0845168
34	0x3d344cd8	0.044018596
35	0xbd4d480e	-0.050117545
36	0xbdb29a2b	-0.087208115
37	0x3db0a49d	0.086251475
38	0x3d871a7d	0.06596849
39	0x3cd7e7c9	0.026355641
40	0xbd9f3b74	-0.07775012
41	0xbda6b2ef	-0.081395976
42	0x3d397d2b	0.045285385
43	0xbd9c48e0	-0.07631087
44	0xbd162e77	-0.036665406
45	0xbd5e59d2	-0.054284878
46	0x3db48cc4	0.088159114
47	0xbd92de63	-0.07171323
48	0xbd86763d	-0.06565521
49	0x3da5e5ba	0.081004575
50	0xbda980e0	-0.08276534
51	0x3d2cd7c2	0.04219795
52	0x3d89f94c	0.06737003
53	0xbd80169f	-0.06254315
54	0xbd908430	-0.07056463
55	0xba97a5e4	-0.0011569825
56	0x3daddc04	0.0848923
57	0x3c231983	0.009954813
58	0x3cbb8758	0.022891685
59	0x3c44da30	0.012014911
60	0x3ca68c10	0.020330459
61	0x3d57b11f	0.05265915
62	0xbc90d32b	-0.017678818
63	0x3c11a294	0.008888859
64	0xbd72b055	-0.059250195
65	0xbd89f0f7	-0.067354135
66	0x3c8c1eba	0.017104495
67	0xbd7ef423	-0.062244546
68	0x3c9a8256	0.018860977
69	0xbd963dec	-0.073360294
70	0x3d9324e9	0.071847744
71	0x3cf40f6d	0.029792512
72	0xbb15a9d2	-0.0022836816
73	0xbd59435f	-0.053042766
74	0xbd86cb37	-0.06581729
75	0xbc82eaa8	-0.015981033
76	0x3d604d08	0.054760963
77	0x3d5d7d29	0.05407444
78	0xbc8edafd	-0.017438406
79	0x3b9fdf10	0.004878886
80	0xbd147574	-0.036244825
81	0x3d81e08e	0.063416585
82	0xbd8d7e58	-0.06908864
83	0xbc783a6e	-0.0151506495
84	0xbd856cfb	-0.06514927
85	0x3b0ce162	0.0021496643
86	0x3c8bd3d4	0.017068781
87	0xbda7a602	-0.0818596
88	0xbce43663	-0.027857965
89	0x3cd8a872	0.026447508
90	0x3c560668	0.013063051
91	0x3d88990b	0.06669816
92	0xbd15a009	-0.036529575
93	0xbd38627c	-0.045015797
94	0xbd827cc4	-0.063714534
95	0x3d98bf79	0.074583955
96	0xbcaebef0	-0.02133128
97	0x3da24854	0.07923952
98	0x3d87f3ad	0.06638274
99	0x3b355420	0.002766855
100	0x3c148db6	0.00906699
101	0x3d37ec3c	0.044903025
102	0x3cab8164	0.020935722
103	0xbd96d8ca	-0.07365568
104	0x3d889ad8	0.06670159
105	0x3d130337	0.035891738
106	0xbd2e132d	-0.042498756
107	0xbd28abef	-0.041179594
108	0xbd57cbfc	-0.05268477
109	0xbbfb0b4d	-0.0076612593
110	0xbcbac768	-0.022800162
111	0xbd0bd460	-0.034138083
112	0xbd6e73f5	-0.058216054
113	0xbb809aaa	-0.0039246874
114	0xbd05df27	-0.032683518
115	0xbd4b375b	-0.049613338
116	0x3d80d114	0.062898785
117	0x3d306d48	0.04307297
118	0x3d8714cf	0.06595766
119	0x3c391aff	0.01129794
120	0x3d11a74b	0.035559934
121	0xbc8e5cab	-0.017378172
122	0x3a68524a	0.00088623597
123	0x3d156aeb	0.036478918
124	0x3dad4f1c	0.084623545
125	0xbd29ae67	-0.04142609
126	0x3ca7e105	0.02049304
127	0x3d50d1d4	0.050981358
128	0xbda149da	-0.07875414
129	0xbd649798	-0.055808634
130	0xbd3a198e	-0.045434527
131	0x3d913f22	0.0709212
132	0x3d517eaa	0.051146187
133	0xbda06f68	-0.07833749
134	0x3d8187f0	0.06324756
135	0x3cc95fc6	0.024581801
136	0x3d4f0615	0.05054291
137	0x3ce939c6	0.028469931
138	0xbcbcb7c2	-0.023036841
139	0x3d8f7df1	0.07006443
140	0x3c498d28	0.012301721
141	0xbd5171b6	-0.051133834
142	0x3d8b85c8	0.06812626
143	0x3d792b2d	0.06083219
144	0xbdbf5b41	-0.09343577
145	0xbc219092	-0.009861128
146	0xbd2b68a5	-0.041847844
147	0xbd63a77f	-0.05557966
148	0xbcca1236	-0.024666887
149	0xbd59bebc	-0.053160414
150	0xbc15faae	-0.009154005
151	0xbc150eb9	-0.009097748
152	0x3d9ba3d0	0.07599604
153	0xbd953570	-0.07285583
154	0xbda1d7a8	-0.07902461
155	0xbc2089f0	-0.009798512
156	0xbcf2c02b	-0.029632648
157	0x3d93f34b	0.07224139
158	0xbce9d49b	-0.028543761
159	0xbdb2a246	-0.087223575
160	0x3d92b439	0.07163281
161	0x393baaf6	0.00017897398
162	0x3cddd8a1	0.027080836
163	0xba0abfc3	-0.0005292857
164	0x3d825f6d	0.06365857
165	0xbd266002	-0.040618904
166	0xbda249b3	-0.07924213
167	0x3d9e75b0	0.07737291
168	0xbd8c7c4b	-0.068596445
169	0x3bb2afdb	0.0054530925
170	0xbd0c276e	-0.03421729
171	0x3d773d33	0.0603611
172	0x3d965e4b	0.07342204
173	0xbd96e1a9	-0.0736726
174	0x3cb1e11a	0.021713782
175	0xbc40ef78	-0.011775844
176	0x3d925b83	0.07146361
177	0x3d79cc3b	0.060985785
178	0x3d832769	0.06404001
179	0x3ca3bbad	0.019986952
180	0xbd1ba508	-0.037999183
181	0xbbfb1569	-0.0076624644
182	0xbdad534e	-0.08463155
183	0x3ceac0d8	0.028656408
184	0xbd91faff	-0.07127952
185	0x3d7ed182	0.06221152
186	0x3b9d42df	0.0047992314
187	0xbcc8bbf7	-0.024503691
188	0xbd94aff5	-0.07260124
189	0x3cfa9488	0.030588403
190	0x3cd102a2	0.02551395
191	0x3d0efb69	0.034907732
192	0xbd6e5368	-0.05818501
193	0xbd808e1f	-0.062771074
194	0x3d90ad26	0.070642754
195	0xbd7bde2d	-0.06149118
196	0xbbe70957	-0.007050674
197	0x3bd3c67e	0.006462871
198	0x3dbee2a7	0.09320574
199	0x3b105210	0.002202157
200	0xba432246	-0.0007443767
201	0xbd6ef955	-0.05834325
202	0x3d4a9ec4	0.049467817
203	0x3c811a45	0.015759597
204	0xbc39123b	-0.01129585
205	0xbca63401	-0.02028847
206	0xbce21985	-0.02760006
207	0x3d8ac8eb	0.06776603
208	0xbcfcedff	-0.030875204
209	0xbdb4d27f	-0.088292114
210	0x3d825781	0.06364346
211	0x3c8dedbe	0.017325278
212	0xbd0dd1f9	-0.034624074
213	0xbd708e3a	-0.058729388
214	0x3dab3cd4	0.083612114
215	0x3d2ece9e	0.042677514
216	0xbc102af5	-0.008799304
217	0xbcc3397e	-0.023831125
218	0xbd96beb1	-0.0736059
219	0xbd055666	-0.0325531
220	0xbd4aafd0	-0.049484074
221	0xbd5e38a8	-0.05425325
222	0xbd5515a8	-0.052022606
223	0x3d8bb385	0.0682135
224	0x3c47078b	0.0121477945
225	0x3cc10d9c	0.02356606
226	0x3d9b85cd	0.0759388
227	0xbc9174e4	-0.017755933
228	0xbd6d5f19	-0.05795202
229	0x3d8b7a08	0.06810385
230	0xbc00ca72	-0.007860767
231	0xbd1e3dbb	-0.03863309
232	0x3ced6de3	0.028983062
233	0xbd790025	-0.060791153
234	0xbd3658a4	-0.044518128
235	0x3d43565e	0.047689788
236	0x3c833211	0.016015084
237	0x3d457229	0.048204575
238	0xbd9c21d0	-0.07623637
239	0xbdb3ffce	-0.08789025
240	0x3cd67774	0.026180007
241	0x3d98b951	0.07457221
242	0xbd135b38	-0.035975665
243	0x3d1c6f99	0.038192365
244	0xbdadd6eb	-0.08488258
245	0xbd699ef5	-0.05703636
246	0xbd76bfe1	-0.060241584
247	0x3d34bc3f	0.044124838
248	0x3d959b57	0.07305019
249	0x3dabc68c	0.08387479
250	0xbc320d1d	-0.010867384
251	0xbd8080d6	-0.062745735
252	0x3ce10ca8	0.027471855
253	0x3d219b25	0.039454598
254	0xbcb1b46a	-0.021692473
255	0x3d9a975a	0.07548399
